test folder/Others/gold_lstm.pth (torch, 213221 bytes, 9 tensors)

lstm.weight_ih_l0 f4 [256, 8]
000000 cc b8 c3 3d 66 7b d4 3d 20 e5 ef bc 1c 2a eb 3d
       0.095567316 0.10375099 -0.02928406 0.11482641
000010 b0 5c e0 bc 38 a2 ce 3c 10 45 79 bd 28 58 96 3d
       -0.027387947 0.025223836 -0.06085688 0.07341033
000020 cc ac e1 3d 0e cf bb bd a4 83 de 3d b0 a6 bf 3c
       0.110192865 -0.09170352 0.10864952 0.023394912
000030 94 22 bd 3d 50 ae 8a 3c 5c e1 76 3d 60 94 90 bc
       0.09235111 0.016928822 0.060273513 -0.017648876
000040 c6 58 c5 3d 38 5b 97 3c a4 05 6f bd 08 82 02 3d
       0.09636073 0.018476114 -0.05835499 0.03186229
000050 ac e5 6b bd c0 2c 70 bc fc f3 4f bd ae d2 a9 3d
       -0.05759208 -0.014659107 -0.05076979 0.08292137
000060 2a 14 ca bd 8c 09 6c bd 6c 93 10 bd fe ec 99 bd
       -0.09867127 -0.057626292 -0.035296842 -0.07515906
000070 f0 4b 41 3c 8a d8 fc bd 28 32 e7 3d c0 76 d9 bd
       0.01179789 -0.12345989 0.112888634 -0.10618353
000080 96 a3 c5 3d c8 69 aa 3c ac 3f 26 bd f8 31 9e 3d
       0.09650342 0.020802394 -0.040588066 0.077243745
000090 58 97 9f 3c b0 d6 ce 3d 00 e3 5f 3c 98 78 21 bd
       0.019481346 0.10099542 0.013664961 -0.039421648
0000a0 e8 90 09 3d 08 d8 0a bd a4 7a 57 3d fe 8f e4 3d
       0.03358546 -0.03389743 0.052607194 0.11160277
0000b0 b6 fb 93 3d 14 d5 5f bd 9e c7 93 3d 70 38 b7 3c
       0.072257444 -0.054646567 0.07215808 0.022365779
0000c0 7a 01 82 3d 86 08 9c bd a4 6a fd bd 0c d1 45 bd
       0.06347938 -0.07618813 -0.12373856 -0.048295066
0000d0 9c 5b c4 bd d6 0e d2 3d d8 78 13 3d cc 13 54 3d
       -0.095877856 0.10256736 0.036003917 0.051776692
0000e0 fc ec 21 3d 00 82 0e bb 04 59 c8 3d 38 e4 b5 bd
       0.039532647 -0.0021744967 0.097826034 -0.0888142
0000f0 20 f3 00 3c f4 ba ae bd 50 e0 1d 3d e0 52 30 bd
       0.0078704655 -0.08531752 0.038544 -0.043047786
000100 98 e2 1c 3d 78 57 d5 bc 06 53 d4 3d 50 bb 97 bd
       0.038302034 -0.026042685 0.10367398 -0.07408774
000110 8a ad 98 bd e6 af 98 bd e2 41 e6 3d e4 9f 2a 3d
       -0.07454975 -0.07455425 0.11243035 0.04165639
000120 10 56 f6 3d 4e 45 d3 bd 98 eb fd bd fe 48 c8 bd
       0.12028134 -0.10315953 -0.123984516 -0.09779547
000130 5a 35 ac bd 6c 61 4f 3d b8 55 37 3d 76 b7 d4 3d
       -0.084086135 0.050630018 0.044759482 0.10386555
000140 7f d7 86 bd 5f 57 ba bd 31 5d 8d 3d 85 d3 43 bd
       -0.06584071 -0.09098696 0.069025405 -0.047809143
000150 9b d9 93 3d 36 0f f0 bc 52 f9 97 3d 40 5e c1 bd
       0.07219239 -0.029304128 0.07420601 -0.09441805
000160 ba 30 81 bd c4 18 1c 3d 38 7b d8 3c f4 89 02 bd
       -0.06308122 0.038109556 0.026425943 -0.031869844
000170 02 98 98 3d fa 07 ae 3d f6 a4 b9 bd 96 ab 88 bd
       0.07450868 0.08497615 -0.09064667 -0.066733524
000180 d2 68 ea 3d f4 c3 2c bd 2c 83 35 bd 48 b4 f7 bd
       0.11445774 -0.042179063 -0.04431455 -0.12094933
000190 84 9a 92 bd 88 cc ff 3c 38 29 87 bc aa d3 b9 bd
       -0.07158378 0.031225458 -0.016499147 -0.09073575
0001a0 40 28 40 3b 6e de ae bd 86 30 d9 bd 3a f8 8c bd
       0.0029320866 -0.08538519 -0.10604958 -0.06883283
0001b0 e6 0d e0 bd 44 01 a3 bd 5e e6 ff 3d 70 68 c1 3c
       -0.10940151 -0.07959226 0.12495111 0.02360937
0001c0 1c c7 1d 3d 66 c4 ee bd 54 22 a8 bd 14 6c 2a bd
       0.038519964 -0.11658554 -0.082096726 -0.041606978
0001d0 c0 1f a0 3c 86 42 e1 bd 64 9b 5c bd 58 42 99 bd
       0.01954639 -0.109990165 -0.05385913 -0.07483357
0001e0 00 9e b5 39 50 84 3e bd f0 ea 0d bc 24 79 ad bd
       0.0003464073 -0.0465129 -0.0086619705 -0.08470371
0001f0 98 b7 af bd d2 59 95 bd 9c 41 2f bd 50 0e ca bd
       -0.085799396 -0.072925225 -0.04278718 -0.09866011
000200 f6 a5 d6 3d 28 3a cb bc f6 42 dc 3d b0 87 1f 3d
       0.10480873 -0.024808004 0.10754959 0.03894776
000210 b0 c7 d8 bd 38 29 b1 3d c8 df 0c bd 50 43 44 bd
       -0.10584962 0.0865044 -0.034393102 -0.047915757
000220 f8 80 d4 bd 9d 81 fe bd 64 48 12 3d b1 18 e0 bc
       -0.10376161 -0.124270655 0.03571357 -0.027355524
000230 5c 55 47 3d 04 17 d2 bd 78 f5 bd 3d 56 05 bc bd
       0.04866539 -0.10258296 0.09275335 -0.09180705
000240 48 d1 b0 bc f0 e1 d5 3c 14 29 84 3d e4 ab ce 3d
       -0.021584168 0.026108712 0.064531475 0.10091379
000250 a0 34 e9 3d f2 fc ca bd 88 da 00 3d 78 39 5c bd
       0.113869905 -0.09911527 0.031458408 -0.053765744
000260 00 6e 60 bc 0c 9d bf bd 08 2e e9 3d 2e e4 bb bd
       -0.013698101 -0.09356126 0.11385733 -0.09174381
000270 cc d1 88 3d e4 ef 33 3d a0 60 26 3d ca 67 8a bd
       0.066806406 0.04392995 0.040619493 -0.067580774
000280 0c b1 e8 3d 40 06 e1 3c 38 ba 83 3c ea 99 e1 bd
       0.11361894 0.0274688 0.016080007 -0.11015685
000290 84 ee 56 3d 00 9f 99 bc 44 8f 6a bd ec e3 db 3d
       0.05247356 -0.018752575 -0.057265535 0.10736832
0002a0 b0 4c e4 3c 86 a3 8d bd 52 92 81 bd 80 9b c3 bb
       0.027868599 -0.06915955 -0.063267365 -0.005969465
0002b0 c4 f0 8e 3d 54 d5 02 bd 32 11 92 bd ac 54 2f bd
       0.06979516 -0.031941727 -0.07132186 -0.04280536
0002c0 4c 40 bf bd 88 98 36 3d 80 27 c6 3d 3c 02 f1 bd
       -0.093384355 0.04457906 0.09675503 -0.11768004
0002d0 20 d3 ed 3c 5c 3f 84 3d 68 ae b9 3c f8 55 36 bd
       0.029031336 0.06457397 0.022666171 -0.04451558
0002e0 00 9e 85 3d 08 88 86 3d 64 73 3f 3d 50 f0 b3 bc
       0.06524277 0.06568915 0.046740904 -0.021965176
0002f0 08 94 07 bd d0 18 5b 3c d0 e4 b4 bc 98 93 18 bd
       -0.033100158 0.013372615 -0.022081763 -0.03725013
000300 10 a3 a3 3d 9c 01 dc 3d 20 bf 4a bc 38 45 e5 bc
       0.07990086 0.107424945 -0.012374669 -0.027987108
000310 80 14 ef 3a a0 90 f4 bb 60 2e f6 3c c8 7a 0f 3d
       0.0018240362 -0.0074635297 0.03005141 0.035029203
000320 84 83 e8 bd 84 f2 3c bd cc 95 d7 3d c0 73 47 3d
       -0.113532096 -0.04612972 0.10526618 0.048694372
000330 a0 b9 cb bb 08 58 9a bd 42 9f 9c bd fa 50 e5 bd
       -0.0062171966 -0.07536322 -0.076475635 -0.11197086
000340 8c e4 26 bd 90 e7 2c 3d 2c 3b a3 3d 98 63 6c 3d
       -0.040745303 0.042213023 0.079702705 0.057712168
000350 28 4a e2 bd e4 f2 99 bd b0 9a a1 bc 38 a4 f7 3d
       -0.110493004 -0.07517031 -0.019727081 0.12091869
000360 18 21 94 3c d0 97 04 bd 7c d2 53 3d e8 02 43 bd
       0.018082187 -0.032371342 0.051714405 -0.047610193
000370 8c b2 a5 bd e4 d9 ba 3d ac ce 68 bd 28 47 cd bc
       -0.08090696 0.091235906 -0.056837723 -0.025058344
000380 7e ab fe bd 52 55 ab 3d 58 f4 c1 3d f4 98 3a 3d
       -0.12435053 0.08365883 0.09470433 0.045556024
000390 90 80 b2 bd 18 a8 fc bd f6 ea cf bd 36 e6 be 3d
       -0.087159276 -0.12336749 -0.10152237 0.09321253
0003a0 6c d0 75 3d d6 6c d7 3d 56 1c 86 3d 4c 95 01 3d
       0.06001322 0.10518806 0.065483734 0.03163652
0003b0 80 71 a0 ba 86 b0 c2 bd 6c 55 db bd 02 73 ef bd
       -0.0012240857 -0.095063254 -0.10709652 -0.11691858
0003c0 e4 97 51 3d 28 60 7b bd 28 15 ce bc 50 54 93 bd
       0.051170245 -0.061371 -0.025156572 -0.07193816
0003d0 d0 98 ba bc 86 2e b4 bd 40 46 a7 bd 00 d6 29 3d
       -0.022777945 -0.08797936 -0.08167696 0.041463852
0003e0 20 2a 18 bd 34 0a 9e 3d 0c 41 24 bd 10 cb bb bd
       -0.03714955 0.0771679 -0.040101096 -0.091695905
0003f0 68 ac b4 bc d0 30 78 bd 60 a4 1c bd fc b5 f3 bd
       -0.022054866 -0.060593426 -0.038242698 -0.11899945

lstm.weight_hh_l0 f4 [256, 64]
000000 58 cb 6d 3d e0 2e dc 3c 78 2d cf bc 78 33 72 3d
       0.05805525 0.02687782 -0.025290236 0.059131116
000010 74 4f 3b 3d 1a 6d e6 bd b4 38 97 bd 40 7c 89 3b
       0.04573007 -0.11251278 -0.07383862 0.00419572
000020 44 46 42 3d e8 16 79 3d 2e 64 98 bd 34 fb fd bd
       0.04743029 0.06081286 -0.07440983 -0.12401429
000030 00 5e d5 bb 30 1f 6a bc 78 92 14 3d a4 cd 0c bd
       -0.00651145 -0.014289662 0.036272496 -0.0343758
000040 c4 b7 c3 3d b0 a6 08 3c 76 f1 ba 3d a8 41 b2 bd
       0.09556535 0.008340523 0.09128086 -0.08703929
000050 84 d1 4c 3d 20 08 74 3c b8 09 80 bd a8 d2 7d 3d
       0.050004497 0.014894515 -0.06251854 0.061968476
000060 b2 e8 fb bd b2 f7 ce 3d 60 0b 25 3c 60 bd 45 3c
       -0.123002425 0.10105838 0.010073513 0.012069076
000070 ac c5 6c 3d 60 02 2a 3c 38 78 5b 3d ee de a2 3d
       0.057805702 0.010376543 0.053581446 0.07952677
000080 20 cc c7 bd 06 5c a9 3d 20 55 99 bc 58 21 ee bc
       -0.09755731 0.08269505 -0.018717349 -0.029068634
000090 c0 1c ce 3c 18 3b c8 3d 5e 2a 8b bd c0 86 ac bd
       0.025160193 0.09776896 -0.0679519 -0.08424139
0000a0 1e e0 9e 3d 50 78 70 bd a4 d6 24 3d a8 dc 96 bc
       0.07757591 -0.05870849 0.04024376 -0.018415764
0000b0 f4 ed 0c 3d 82 5b c3 3d 94 bd 81 bd 78 74 78 bd
       0.034406617 0.09538938 -0.06334987 -0.06065795
0000c0 a4 32 7b 3d 20 44 e0 3b 30 66 61 bc 0c de e0 bd
       0.06132759 0.0068440586 -0.013757274 -0.10979852
0000d0 ec e5 d8 3d 80 1e 9b bb a0 9b bc bc bc 2b 52 bd
       0.10590729 -0.0047338605 -0.023023427 -0.05131124
0000e0 08 13 ca bc 7c d9 78 3d 80 47 3c bb f4 ee da 3d
       -0.024667278 0.060754284 -0.002872914 0.10690108
0000f0 40 7b ec bb 98 e6 92 bc e6 7f 90 3d 00 f9 53 bb
       -0.007216841 -0.017932221 0.07055645 -0.003234446
000100 18 62 cc bc c0 1f 2b 3d b8 e3 c9 3d e8 89 ff 3c
       -0.024949118 0.041778326 0.09857887 0.031193689
000110 e8 41 b2 3d d6 e5 a5 3d e0 ca 10 3d 3c 04 32 3d
       0.08703977 0.08100478 0.035349727 0.04346107
000120 dc 36 25 3d b0 6e 54 3c dc c9 d9 3d f0 52 ec 3d
       0.04033552 0.012965843 0.10634205 0.115392566
000130 24 44 36 3d 60 8c cc bb 30 87 e5 3d 04 40 c7 bd
       0.044498578 -0.00624232 0.112074256 -0.09729007
000140 cc 1a bc 3d a6 a2 87 3d 08 63 a4 3d 00 5c 1d bc
       0.091847986 0.066228196 0.08026701 -0.009604454
000150 46 00 bf bd 60 9d b6 3d f8 df 5f bd b0 b6 06 3d
       -0.09326224 0.08916736 -0.054656953 0.032889068
000160 1a 09 91 3d 12 3d ef bd d0 e9 07 3c 3c e0 35 bd
       0.07081814 -0.1168157 0.008295491 -0.0444033
000170 86 b2 b5 3d de fe a2 bd 7a 6f 9b 3d 48 a2 9f 3d
       0.08871941 -0.07958768 0.07589622 0.077946246
000180 30 3d 8d 3d 5e c3 f5 3d 00 16 9b 3c 98 08 e8 bd
       0.06896436 0.12000154 0.018931389 -0.11329764
000190 da bf b6 3d e0 7c 3b 3c 00 92 22 3b e4 dc f3 bd
       0.089233115 0.011443347 0.002480626 -0.11907366
0001a0 80 26 e6 bc 20 82 78 bd ae ba fa 3d 86 47 b6 3d
       -0.02809453 -0.060670972 0.122426376 0.08900361
0001b0 16 f9 be 3d 74 51 af 3d 0e b0 9e bd 70 e3 5b bd
       0.09324853 0.08560458 -0.077484235 -0.0536837
0001c0 10 5f 48 bd 70 40 4d bd 54 47 c7 3d ec f5 2d 3d
       -0.048918784 -0.05011028 0.09730402 0.042470858
0001d0 8a 25 cd 3d 40 9b bf bb 92 34 e4 bd 08 8b 14 bd
       0.10016926 -0.0058473647 -0.111428395 -0.036265403
0001e0 5a ea b3 3d ae da 9b 3d 28 80 1e 3d 0c 2f 16 bd
       0.087849334 0.07610069 0.038696438 -0.03666596
0001f0 68 f1 ee bd 3e 8e 89 bd 30 79 85 3d e8 84 4e bd
       -0.11667138 -0.06716584 0.06517255 -0.050419718
000200 cc e8 74 3d 0c cc 0b 3d 18 a7 44 bd 8e ec 9b 3d
       0.059792325 0.03413014 -0.048010916 0.076134786
000210 b4 85 24 bd 80 14 88 bb 08 07 43 bd 96 d5 f2 bd
       -0.04016657 -0.0041528344 -0.047614127 -0.118571445
000220 a0 1b a5 3c c8 f3 13 3d 28 e4 80 bd da 0a 9d 3d
       0.020154774 0.03612116 -0.06293517 0.076680854
000230 6e a5 e5 bd 2c c7 f6 bd 3e 1e 9e bd 20 f3 30 bd
       -0.11213194 -0.12049708 -0.07720612 -0.043200612
000240 70 72 63 bc c0 e2 c5 bc c0 ab 69 3d 0e ac e0 bd
       -0.0138822645 -0.024155974 0.05704856 -0.10970317
000250 10 c8 96 3c c0 dd 0d 3b 14 3c 07 3d 08 7c fe 3d
       0.018405944 0.0021647066 0.03301628 0.12426001
000260 08 8e 9d 3d 96 bf 8d bd a4 c7 d1 bd 50 e9 f7 bc
       0.07693106 -0.06921308 -0.102431566 -0.03026262
000270 a0 6a 80 bd 20 d8 32 3d 00 31 96 3a 26 e8 cd 3d
       -0.06270337 0.043663144 0.0011458695 0.100540444
000280 e4 1d 49 3d 80 48 bc bc 80 c7 8c 3b d0 3b f5 3c
       0.04910077 -0.02298379 0.004296243 0.029935747
000290 70 21 7e bc 44 93 ce 3d 9e 2a c8 bd 44 8d 79 3d
       -0.015510902 0.100866824 -0.097737536 0.060925737
0002a0 86 2f a3 bd e0 46 e0 bd 48 39 d2 bc 08 80 79 3d
       -0.07968049 -0.10951018 -0.02566208 0.060913116
0002b0 3e e1 b4 3d 88 7b 00 3d b0 01 31 bc 80 9e e5 bb
       0.08832024 0.03136781 -0.010803625 -0.00700742
0002c0 24 8e 4f bd 40 c8 37 bc 20 81 0d bc b0 d8 d9 3d
       -0.050672665 -0.011217177 -0.008636743 0.10637033
0002d0 90 d2 95 3d 7a db cc bd 00 8d 07 3a 38 75 9d bd
       0.07315552 -0.10002799 0.0005170852 -0.07688373
0002e0 f8 8c a2 bc ec 75 cb bd a0 19 05 3d 92 98 b8 bd
       -0.01984261 -0.09934601 0.03249514 -0.090134755
0002f0 84 ba fc 3d f4 54 c1 3d 4a 38 b0 bd c8 03 f1 bd
       0.123402625 0.09440032 -0.08604486 -0.11768299
000300 00 d1 9f 3b f8 ec 0e bd 60 4e 16 3d 3e 4a ad bd
       0.0048772097 -0.03489396 0.036695838 -0.08461426
000310 2c 95 51 3d ae 1e dd bd f0 1b 87 bd 64 94 86 bd
       0.051167652 -0.10796867 -0.065971255 -0.06571272
000320 9c c0 77 3d 00 7a 56 bb f8 05 f6 bd ec 34 92 bd
       0.06048642 -0.0032726526 -0.12012857 -0.07139
000330 18 f1 6c bd 3e 86 ed bd b8 1e 83 3c ec 71 36 3d
       -0.057847112 -0.1159787 0.016005859 0.044542238
000340 90 e1 bb bc 6c bf 4b bd 00 b9 46 ba 0c 56 cb bd
       -0.022934705 -0.0497431 -0.0007580668 -0.099285215
000350 f8 e0 9b bd 40 d4 3a bb b2 6c e3 3d bc 71 1d bd
       -0.07611269 -0.0028507859 0.11104716 -0.038438544
000360 14 c7 7d 3d 70 7f 49 bd 14 4b 08 bd a2 b2 f3 bd
       0.061957434 -0.0491938 -0.033274725 -0.11899306
000370 98 17 d4 3d 36 46 f9 3d 00 0f 2c bb 98 a7 a2 3d
       0.10356063 0.12171595 -0.0026254058 0.07942122
000380 a0 64 d1 3d c4 51 7e 3d 4e d8 83 3d a8 b5 f3 bd
       0.10224271 0.062089697 0.06437741 -0.118998826
000390 42 8e f0 bd 86 7d c4 bd 70 25 20 3d 1c 6f dd bd
       -0.117458835 -0.09594254 0.039098203 -0.10812208
0003a0 8e 6a c3 bd f8 2a 78 bd 92 f3 eb bd 00 9c 30 39
       -0.09541808 -0.060587853 -0.11521067 0.00016842782
0003b0 08 bb 93 3c b2 cf 95 bd b4 9e a7 3d d0 60 42 bd
       0.01803352 -0.07315005 0.08184567 -0.04745561
0003c0 50 24 10 bd 40 0a c3 3d 0a ca db 3d 90 f2 6a bc
       -0.03519088 0.095234394 0.10731895 -0.014340058
0003d0 dc c6 b7 bd 62 6d 80 bd 38 65 82 3c b6 10 96 3d
       -0.08973476 -0.06270863 0.015917405 0.07327406
0003e0 80 e5 7e 3d 18 17 62 bd 8c 03 f2 bd a2 09 e0 bd
       0.062230587 -0.055197805 -0.11817083 -0.10939337
0003f0 60 e5 22 bd 00 86 cd 3a 58 fa 65 bd a8 6b ca bd
       -0.03976953 0.0015680194 -0.05614695 -0.09883815

lstm.bias_ih_l0 f4 [256]
000000 90 de 7c bc 10 a9 83 3c 5c 49 ac bd 76 09 8e bd
       -0.015433922 0.016071826 -0.0841243 -0.06935398
000010 9c 22 5f 3d 96 18 94 bd b0 49 0f 3d 50 e5 71 bc
       0.054476365 -0.07231252 0.034982383 -0.014764145
000020 7a ad a1 3d 5c d8 00 bd 26 35 b5 3d 40 cf 59 bb
       0.07894416 -0.031456336 0.08848028 -0.0033235103
000030 c0 3b 8e bd 60 56 c1 3c 92 59 9d bd 18 dd f6 3c
       -0.0694499 0.023600757 -0.076831 0.030134723
000040 2c c5 75 bd 85 3e 77 3c 70 eb c0 bc 58 91 04 bd
       -0.06000249 0.015090589 -0.023549765 -0.032365173
000050 ea e9 dc bd d8 df 2b bd 8a bc d5 3d fe 59 90 3d
       -0.10786803 -0.04196152 0.104363516 0.07048415
000060 d4 19 56 bd a0 2d 70 3c a0 1c 00 3d 30 43 9d 3d
       -0.052270725 0.014659315 0.0312773 0.076788306
000070 d2 b2 ae 3d fc 85 8c bd f0 1f f3 bc a6 20 d2 3d
       0.08530201 -0.06861493 -0.029678315 0.102601334
000080 b0 89 51 3c d4 c2 8d bd a2 a6 80 bd f8 b4 7d bd
       0.012789175 -0.06921926 -0.06281783 -0.061940163
000090 ae 50 f1 bd 52 cc ab bd d4 34 fe 3d 90 a5 76 bc
       -0.117829666 -0.083885804 0.1241242 -0.015054122
0000a0 0a c1 aa 3d da d9 ec bd 28 6e 71 3d 7c 4d 45 3d
       0.083376005 -0.115649894 0.058942944 0.048169598
0000b0 0a 85 ef bd 30 eb f7 bc 50 04 06 3d 2a 26 c9 bd
       -0.11695297 -0.030263513 0.032718956 -0.09821732
0000c0 bc db 44 3d e2 06 95 3d e8 ef e8 bd ac 1a 45 bd
       0.048061118 0.072767034 -0.113738835 -0.04812114
0000d0 44 90 b3 3d 20 5d 36 bc 56 b6 95 bd d8 ec ff 3c
       0.08767751 -0.011130601 -0.073101684 0.031240866
0000e0 d8 2c d4 bd b4 f7 2a 3d de 0a 94 bd 78 02 3a 3d
       -0.10360116 0.041740134 -0.07228635 0.04541251
0000f0 8a 08 88 bd 10 06 19 bd 4c ae 6d bd 48 d4 85 3d
       -0.06642254 -0.037359297 -0.05802755 0.0653463
000100 d8 c1 ea bd 1a fc 9a 3d b0 f7 84 3d 4c 45 b4 bd
       -0.11462754 0.07567616 0.06492555 -0.0880228
000110 ce dd ac 3d 76 ee bd 3d 0a 43 a1 bd 60 11 3b 3c
       0.084407434 0.092739984 -0.07874115 0.011417717
000120 78 27 00 3d 90 fc 8c bc f6 3c ba 3d 90 01 02 bd
       0.03128764 -0.017210275 0.090936586 -0.03173977
000130 48 99 2f bd 74 88 10 3d e4 88 89 3d b2 38 ca 3d
       -0.04287079 0.03528638 0.06715563 0.09874095
000140 5a e6 fe bd d8 0e fe bc b8 86 62 bd 98 47 3b bd
       -0.1244628 -0.031012937 -0.05530426 -0.045722574
000150 a0 84 0b bd 32 1d 90 bd 36 24 97 bd 1a 6d 8a bd
       -0.034062028 -0.070368186 -0.073799536 -0.06759091
000160 54 96 ad bd 70 1b 4b 3d 1c 58 8c 3d 18 31 69 bd
       -0.084759384 0.049586713 0.06852743 -0.056931585
000170 04 92 f1 3d 24 ec 3b 3d 64 44 c2 bd dc 61 73 3d
       0.117954284 0.045879498 -0.09485701 0.059419498
000180 f0 3c 36 3c 20 a7 d9 3d 10 b8 32 bc b8 74 4e bd
       0.011122927 0.1062758 -0.010908142 -0.05040428
000190 14 14 c7 3d a2 52 eb bd 10 7a 5b 3d 78 fd da bd
       0.097206265 -0.1149037 0.053583205 -0.106928766
0001a0 08 16 f5 bc 70 a0 4d bc e6 d3 f0 bd 9e 17 8e bd
       -0.029917732 -0.012550458 -0.117591664 -0.06938098
0001b0 9c e1 4c bd c8 4d 8c bc 20 c2 d1 3c f4 dc b1 bd
       -0.050019845 -0.017126933 0.025605261 -0.086847216
0001c0 fc 12 d1 3d 78 80 9b 3c 60 db 7c 3c 68 1a e6 3c
       0.10208699 0.018982157 0.015433162 0.028088763
0001d0 38 99 a1 bd 80 e4 fe ba 30 23 e2 bd 06 11 f8 3d
       -0.07890552 -0.001944676 -0.11041868 0.12112622
0001e0 74 e0 3f bd a2 83 ed bd 70 cf 34 3c e0 6d bb bd
       -0.046844915 -0.115973726 0.011035785 -0.09151816
0001f0 24 73 db bd ba 20 b4 bd d8 85 97 bc 3c 7d 34 3d
       -0.10715321 -0.087953046 -0.018496439 0.044064745
000200 48 e5 ff bd e8 b0 98 bc d8 2e ea bc 70 fa 5e bd
       -0.12494904 -0.018639043 -0.02858679 -0.054438055
000210 bc fb 53 3d 7a 3a b3 3d 80 67 77 3c 44 0f 44 bd
       0.051753744 0.08751388 0.01510036 -0.04786612
000220 24 30 21 3d 60 dc 64 bd a0 fb fd bb 38 53 90 3d
       0.03935255 -0.05587423 -0.0077509433 0.07047123
000230 98 11 c8 bc 06 a8 f6 3d 56 70 fd 3d dc e8 12 3d
       -0.024422452 0.12043767 0.12374942 0.035866603
000240 70 1d 44 bc 10 18 f5 bc 8c 2b 51 3d 88 83 9a 3c
       -0.011969909 -0.0299187 0.05106692 0.018861547
000250 28 12 d8 bd e8 4c da bd 00 ad 64 3a f8 93 00 3d
       -0.10550338 -0.106592 0.0008723289 0.031391114
000260 a2 83 9f 3d 40 df b5 3d 50 b4 22 3d 9e 8b bd 3d
       0.07788779 0.08880472 0.03972274 0.092551455
000270 9c a6 bc 3d 16 dc bb bd 70 23 f3 3d f0 1e 76 bd
       0.09211466 -0.091728374 0.118719935 -0.060088098
000280 08 04 a2 bd 28 0a 86 3c 36 b2 ac bd 20 04 19 3c
       -0.07910925 0.016362265 -0.084324285 0.009339362
000290 e0 25 90 3b 2c 4f 1c 3d 3a 1c 92 bd 40 27 82 3d
       0.0043990463 0.03816144 -0.0713429 0.063551426
0002a0 46 3c be 3d 00 5a 3e 3c 78 f2 6f 3d d8 3e 92 bd
       0.0928884 0.011618137 0.058580846 -0.07140893
0002b0 68 f0 59 3d 4c a8 95 bd e4 d6 35 bd 48 38 c1 bc
       0.053207785 -0.07307491 -0.04439439 -0.023586407
0002c0 00 9c 4b ba 7a 75 e7 3d f8 02 97 3c fe 5a fd 3d
       -0.0007767081 0.11301704 0.018434033 0.12370871
0002d0 c8 88 f1 3c fc da 1f bd d4 49 29 bd b0 2e 48 bc
       0.029484168 -0.0390272 -0.041330174 -0.012218162
0002e0 e0 fb a7 bd 18 a4 46 3d d4 ec e4 3d 86 24 93 3d
       -0.08202338 0.048496336 0.11177984 0.07184701
0002f0 fe 8c 9c 3d 48 9a f8 3d 28 49 84 3c 20 34 f9 bb
       0.076440796 0.12138802 0.016148165 -0.0076050907
000300 d8 19 2d bd 00 4c d6 bd d0 88 a9 bd e0 9a dd bb
       -0.042260975 -0.104637146 -0.08278048 -0.0067628473
000310 9a 86 b4 bd d2 88 b0 bd a0 15 a9 3c 2c 1e 93 bd
       -0.08814736 -0.086198464 0.020640194 -0.07183489
000320 92 b8 d4 bd 84 d1 b1 bd 40 15 44 3d 38 a0 8c 3c
       -0.103867665 -0.0868254 0.047871828 0.017166242
000330 8c 54 f3 bd a8 90 ce bd 68 88 4c 3d 66 c6 ef 3d
       -0.118813604 -0.10086185 0.049934775 0.117077634
000340 44 5a 31 3d b4 d8 80 3d 60 15 be bb 3c 84 58 3d
       0.043298975 0.06291333 -0.005800888 0.052860484
000350 82 be 81 3d f8 77 89 bd a2 dc 81 3d f8 a1 0a bd
       0.063351646 -0.06712335 0.063409105 -0.03384587
000360 68 13 36 3d 16 37 f1 bd 60 bb 8a bd 62 48 96 bd
       0.0444521 -0.11778085 -0.0677402 -0.07338025
000370 ec 66 4f bd e4 a0 ea 3d e8 9b 7b bd c4 34 07 3d
       -0.050635263 0.11456469 -0.06142798 0.033009306
000380 f7 1c 5f bc 28 ad a1 3c 64 c0 64 bd 64 1e 94 bd
       -0.013617746 0.019735888 -0.05584754 -0.07232359
000390 24 23 d0 bd e0 92 26 3c 22 1f eb bd c0 74 ed bd
       -0.101629525 0.010166854 -0.114805475 -0.11594534
0003a0 54 1c e5 3d 68 9d 56 3d 20 17 a8 bc 04 46 6e bd
       0.11187044 0.052396208 -0.02051884 -0.05817224
0003b0 70 81 e2 3d 80 23 b1 bb f8 58 d5 bd b8 c1 b6 3d
       0.110598445 -0.0054058433 -0.1041736 0.08923668
0003c0 be 3e ee 3d d8 ad ba 3c e8 18 b8 3d 76 37 cd bd
       0.11633061 0.022787973 0.089891255 -0.10020344
0003d0 40 e0 62 3b 8a f8 fa 3d 26 cb fb bd ac 6c f2 bd
       0.0034618527 0.12254436 -0.12294607 -0.11837134
0003e0 30 a8 35 3c dc a8 08 3d ac 81 01 3d 18 59 12 bd
       0.011087462 0.03336416 0.031617805 -0.035729498
0003f0 b0 c4 d5 3d 10 49 b9 3d 12 dc fc bd fc 4e f3 bd
       0.10437906 0.09047139 -0.123466626 -0.118802994

lstm.bias_hh_l0 f4 [256]
000000 b2 21 d9 3d 44 55 50 bd 50 45 c4 3c 68 d7 34 3d
       0.1060213 -0.050862566 0.023958832 0.04415074
000010 18 93 eb 3c 42 08 84 bd 00 77 ae bd 90 ff c5 bd
       0.028756663 -0.064468876 -0.08518791 -0.09667885
000020 d0 92 53 3d 58 78 82 bc 80 3c 94 bd 9c c7 ce bd
       0.051653683 -0.015926525 -0.07238102 -0.10096666
000030 de 42 8a 3d 50 2e 8b 3c 4e 4e f5 bd 20 b3 df bb
       0.06751035 0.016989857 -0.11977826 -0.0068267733
000040 08 82 0b bd e8 72 64 bb 00 68 fd 3c 64 5d 32 3d
       -0.034059554 -0.0034858529 0.03093338 0.043546095
000050 ca a6 f0 bd a0 31 95 3c 72 53 84 3d c0 25 ef bc
       -0.117505625 0.01821214 0.064612284 -0.029192805
000060 76 d7 c4 3d 74 c5 fa 3d ac 4d 0e 3d 2a ad f5 3d
       0.096114084 0.122446924 0.034742042 0.11995919
000070 1c ac 59 3d 0e 0a ab bd 60 07 a0 3d 5c 43 5a bd
       0.053142652 -0.08351527 0.07813907 -0.053286895
000080 cc b8 b7 bd b4 c8 e6 bd 20 6d 34 3c 30 60 e6 3d
       -0.08970794 -0.1126875 0.011012346 0.11248815
000090 6c 53 30 bd a0 fa a3 3c 5c 5a 26 3d 2e 4c 9e 3d
       -0.043048307 0.020016968 0.040613517 0.07729374
0000a0 f6 35 d8 3d 76 c8 87 3d b8 48 36 bd c0 93 67 bb
       0.10557167 0.06630032 -0.044502944 -0.0035335869
0000b0 24 69 f5 bd 7e 77 c6 bd e6 e8 8a bd 68 94 98 3d
       -0.119829446 -0.0969076 -0.06782703 0.07450181
0000c0 f8 bc b0 3c 00 2e cf b9 be e0 a8 3d 50 02 3c bc
       0.021574482 -0.0003951639 0.08245991 -0.011475161
0000d0 5e 1d c3 3d 4c bc f0 3d b2 de cf bd 52 50 cb 3d
       0.09527086 0.11754665 -0.10149898 0.09927429
0000e0 dc 0e a2 3d 90 79 68 bc 30 dd 19 3d 6a 06 ac bd
       0.079129905 -0.014189139 0.037564456 -0.08399661
0000f0 e4 d7 21 bd 64 b0 91 bd ce 0d b2 bd a8 03 ab bc
       -0.03951253 -0.07113722 -0.08694039 -0.020875767
000100 ac 27 ff bd 70 a2 bf bc da 28 a3 3d 4c f0 9d bd
       -0.12458739 -0.023392886 0.07966776 -0.077118486
000110 bc 8c 27 bd 80 5d a6 3b 74 62 5e bd e0 33 3c 3c
       -0.0409057 0.005077064 -0.05429311 0.011486977
000120 a0 ff eb bd c8 41 0a 3d 34 89 ef 3d 00 d1 fa 3b
       -0.11523366 0.03375414 0.11696091 0.0076543093
000130 ec 73 f9 3d b4 82 e1 bd 80 01 85 bd e8 84 1b bd
       0.121803135 -0.11011258 -0.06494427 -0.037968546
000140 b2 d7 da 3d 74 7f ea bd 68 20 ba bc f4 43 e5 bd
       0.10685672 -0.11450091 -0.02272053 -0.11194602
000150 38 f6 c4 3c 62 55 de bd 7c 3f d2 bd 28 54 9f bd
       0.024043187 -0.10856129 -0.10266015 -0.077797234
000160 dc a5 44 bd e2 8d a2 3d 30 9e a5 3c 58 c6 e6 bd
       -0.04800974 0.07937218 0.020217031 -0.112683
000170 68 11 f2 3d c0 40 26 bb 90 89 15 3d 44 31 84 bd
       0.11819726 -0.0025368184 0.036508143 -0.06454709
000180 a8 66 71 bd 90 ba bf bd 4c 4b c9 bd 12 ce 82 bd
       -0.05893579 -0.09361756 -0.09828815 -0.06386961
000190 aa 49 8d 3d 68 da 42 bd 10 3e d9 bd f4 09 16 3d
       0.06898816 -0.04757157 -0.106075406 0.036630586
0001a0 98 81 06 bd 96 78 b7 bd e0 4e cf 3d fa e3 ee bd
       -0.032838434 -0.08958547 0.10122466 -0.11664577
0001b0 52 f7 f8 bd 2c f5 93 3d 5e 41 8e 3d b8 f4 43 bd
       -0.121565476 0.07224497 0.069460616 -0.047840804
0001c0 52 f3 b4 3d fc 61 a8 bd 98 c6 70 bd f0 67 93 bc
       0.08835472 -0.08221814 -0.058783144 -0.017993897
0001d0 94 61 2b bd 7c 85 a5 3d 60 ef ed bd 3c 47 cf 3d
       -0.041841105 0.08082101 -0.11617923 0.10121009
0001e0 12 a1 92 3d a0 24 8d bd 56 ec 86 bd e8 4a 9f 3c
       0.07159628 -0.06891751 -0.06588046 0.019444898
0001f0 30 b8 1b bc 20 01 e3 bd 28 6f d1 3d c6 6e c9 3d
       -0.009504363 -0.11084199 0.102262795 0.098355815
000200 68 da cc 3d 58 1d 73 3d 36 36 b2 bd 6a b4 86 bd
       0.10002595 0.059354156 -0.08701746 -0.0657738
000210 a0 2a 58 bd d4 04 0e 3d 70 ff 89 3d a0 7d c1 bb
       -0.052775025 0.034672573 0.06738174 -0.0059048682
000220 20 e1 fb bd a0 43 a2 bd 5c d0 74 bd f4 52 ac bd
       -0.122987986 -0.07923055 -0.05976902 -0.084142596
000230 38 cc 83 3d e0 c5 b6 3b 48 b4 b6 bd e8 4d 9b bd
       0.06435436 0.0055777878 -0.08921105 -0.07583219
000240 fc 07 bb bd fe 59 b1 bd 3c 00 40 3d 46 7b 86 bd
       -0.09132382 -0.08659743 0.046875224 -0.06566481
000250 36 35 db bd 50 e8 13 3c 80 9a f5 bb 74 41 d4 bd
       -0.107035086 0.009027556 -0.0074952245 -0.10364047
000260 10 f2 09 3d 70 d3 2e 3c 30 be 85 3c 84 e7 60 3d
       0.033678114 0.010670528 0.01632604 0.05490829
000270 04 39 81 bd c2 b3 df bd 60 7a a5 3d 18 32 e8 3d
       -0.06309703 -0.10922958 0.08079982 0.113376796
000280 3a c3 ed 3d 30 a0 88 3d a8 4f eb 3d ec 84 10 3d
       0.11609502 0.06671178 0.114898026 0.035283014
000290 8c 5b df bd 50 4b 18 3d ca c2 c3 bd 22 28 f1 bd
       -0.10906133 0.0371812 -0.095586374 -0.11775233
0002a0 e4 1c 46 3d da 95 87 bd be f0 b8 bd 08 c3 f1 3d
       0.048367396 -0.06620379 -0.09030293 0.118047774
0002b0 44 2b 23 3d ec c6 5a 3d 68 d0 18 bd a8 76 3f 3d
       0.039836183 0.053412363 -0.037308127 0.04674402
0002c0 00 f2 00 bb 40 2a ef bc b0 61 c3 bc 6a fc bd 3d
       -0.0019675493 -0.029194951 -0.023850292 0.0927666
0002d0 60 0a af bd 44 da 1d bd 58 ef ba 3d 60 d5 be bb
       -0.08546901 -0.038538232 0.091276824 -0.005823776
0002e0 90 5c 7b 3d b4 02 59 bd 5e c2 ab 3d 0a fa b5 bd
       0.06136757 -0.052981094 0.08386682 -0.08885582
0002f0 16 45 89 bd 96 30 e1 bd a2 79 cc bd de 30 a1 3d
       -0.0670263 -0.10995595 -0.09984137 0.07870649
000300 da 86 a5 3d 0a 38 89 3d 84 6e 7d 3d 7c a5 ad 3d
       0.080823615 0.06700142 0.061872974 0.08478829
000310 9a b6 9b 3d 5e a7 96 3d a8 5b 7b bd fa d2 bf 3d
       0.07603188 0.073561415 -0.061366707 0.093664125
000320 a6 fe a9 3d 30 a0 1e 3d 90 76 b8 bc 56 cc df 3d
       0.083005235 0.038726985 -0.022517473 0.10927646
000330 80 19 08 bc c2 9e ee bd 9c 5d 40 bd c0 43 51 bb
       -0.008306861 -0.116513744 -0.046964273 -0.0031931251
000340 d0 62 73 3d 34 b8 09 3d 98 25 b1 3c f0 d2 d9 3d
       0.059420407 0.033622935 0.021624371 0.10635936
000350 46 5e a7 3d f2 69 91 bd 64 ad 39 bd b0 32 43 bc
       0.08172278 -0.071002856 -0.045331374 -0.01191394
000360 60 6d e9 bb e2 2f c3 bd 98 2e 09 bd ee e8 c1 3d
       -0.007123634 -0.09530617 -0.0334917 0.09468256
000370 8a 30 f8 bd e0 87 93 3c d8 61 cf 3c dc 8b 23 bd
       -0.12118633 0.018009126 0.02531521 -0.039928302
000380 11 cb 36 bd c4 4f 80 bd d8 a7 e8 bd 4c da e6 bd
       -0.044627253 -0.06265214 -0.11360139 -0.112721056
000390 a0 1c 88 3d 00 b8 75 bb 40 3c b2 bb 78 f0 a7 bc
       0.06646085 -0.0037493706 -0.0054393113 -0.020500407
0003a0 2e 22 f2 bd 38 11 a7 bc d8 14 ec bd 8c 48 7c 3d
       -0.118229255 -0.020393953 -0.11527413 0.061592624
0003b0 00 b1 33 bd f4 fd 2d bd 0c 55 34 3d 4e 79 af bd
       -0.043869972 -0.042478517 0.04402642 -0.08568059
0003c0 fa 96 a6 bd 20 10 8e bd c0 ef e6 bc c6 bf a1 bd
       -0.08134265 -0.06936669 -0.028190494 -0.07897906
0003d0 1c 0b ff bd b0 f4 64 3d 06 30 8b 3d f0 4a 53 bd
       -0.12453291 0.055897415 0.06796269 -0.051585138
0003e0 08 dc c4 bd d8 49 ad 3d b5 02 9b bd e2 7f c6 bd
       -0.0961228 0.0846135 -0.07568876 -0.096923605
0003f0 d6 e3 e6 bd 20 9f fd 3c 38 32 e8 3c 5e ae f3 3d
       -0.11273925 0.030959666 0.028344259 0.11898492

lstm.weight_ih_l1 f4 [256, 64]
000000 a8 56 33 bd 8e e9 aa bd ec 1b fa 3d 76 f7 af 3d
       -0.043783814 -0.08345328 0.12212357 0.08592121
000010 84 8f ed bd 2c c7 ef bd 3c 9b 3e 3d f0 09 7f bd
       -0.11599639 -0.11707911 0.04653476 -0.062265337
000020 78 76 b2 3c a0 6f 06 bc 81 82 32 bd 80 88 da 3d
       0.021785006 -0.008205324 -0.04358149 0.106705666
000030 20 e4 27 3d 44 15 1a 3d a8 25 c0 bd 1c ba 33 bd
       0.04098904 0.037617937 -0.09382182 -0.04387866
000040 b8 52 6f 3d 36 be 81 3d f5 fe 01 3c 4a bc fa bd
       0.058428496 0.06335108 0.007934322 -0.122429445
000050 ee b5 89 bd 90 42 fc 3d 98 df cf 3d 5e ce 86 3d
       -0.067241535 0.12317383 0.10150069 0.0658233
000060 6e 7d 8a bd 96 1c 8a bd ba 42 23 3d 24 55 d6 bd
       -0.06762205 -0.067437336 0.039858557 -0.10465458
000070 00 23 6f bc b4 1b 44 3d 18 d3 49 3d cc d7 7b 3d
       -0.014595747 0.047877982 0.04927358 0.061485097
000080 dc f1 17 3c 68 ce ab 3d 7f a7 02 be 3a 19 84 bd
       0.009273972 0.08388978 -0.12759207 -0.06450124
000090 08 d8 1d bd 26 ae 95 3d 21 df bc bd 8e d0 b1 3d
       -0.0385361 0.07308607 -0.09222246 0.08682357
0000a0 78 4b 94 bd b4 9d 30 bd 0a 70 bd 3d 68 a0 ef 3d
       -0.07240957 -0.043119147 0.092498854 0.11700517
0000b0 e8 8f 19 3d 18 c8 da bc 88 1b b5 3d 00 4a c6 bb
       0.037490755 -0.02670674 0.08843142 -0.006051302
0000c0 4c 46 9a 3d 94 5d 4f 3d c0 9f 32 bb d4 94 f1 3d
       0.07532939 0.050626352 -0.0027255863 0.11795965
0000d0 98 d4 76 3d ea 68 f0 3d 28 c3 f1 3d f9 0f 9a 3c
       0.06026134 0.11738761 0.11804801 0.018806444
0000e0 70 90 6f bd 18 24 2c bd ed a2 74 bc 2c 17 27 bd
       -0.058487356 -0.04202661 -0.014931423 -0.040793583
0000f0 f0 ae 55 3c a9 e5 ed 3d c8 a6 9d 3d 40 33 0c 3d
       0.013042197 0.1161607 0.076978266 0.034228563
000100 1d 07 8a 3d 13 7f 95 bd 94 d4 4d 3d 1c 3f e0 3d
       0.06739638 -0.07299628 0.05025156 0.10949537
000110 3c ac 1b 3d 80 26 fc 3a 62 bb ce 3d 80 83 d2 bd
       0.038006052 0.0019237548 0.10094334 -0.10278988
000120 ca 84 90 3d f0 41 c6 bc f6 db f1 bd 56 86 8f 3d
       0.070565775 -0.024201363 -0.11809532 0.070080444
000130 10 c7 cc bc b0 0a e6 bc d0 0e 6a bd 44 0f 29 bd
       -0.024997264 -0.028081268 -0.057143033 -0.041274324
000140 10 68 9d bc a7 2a 00 be 1c 12 6f 3d 80 36 84 3c
       -0.01921466 -0.1251627 0.05836688 0.016139269
000150 40 23 3e 3d 78 bb fe 3d b0 81 e4 bc 5a a3 99 bd
       0.046420336 0.124381006 -0.027893871 -0.0750186
000160 01 46 a1 bd 20 1f 8d bc 3d 2e db bc 84 4f 36 3d
       -0.0787468 -0.017226756 -0.026755447 0.044509426
000170 00 9d 11 3c d4 97 2a 3d 86 74 82 bd 1a 6b dc bd
       0.008887529 0.0416487 -0.06369881 -0.107626155
000180 8a 53 ec 3b 60 98 d8 3c 2f d5 7e bd 48 b7 36 bd
       0.007212107 0.026439846 -0.062215026 -0.044608384
000190 d0 94 b4 bc 82 e8 e4 bd 89 e6 f3 3d fd 79 b3 3d
       -0.022043616 -0.1117716 0.119092055 0.08763502
0001a0 98 e7 ba bd 23 e8 f8 bd b6 e6 de 3d ab 96 cf 3d
       -0.09126204 -0.121536516 0.10883848 0.101361595
0001b0 6a e6 e5 bd 58 11 d9 3c ca 9e a2 bd fe 6f bc bd
       -0.112255886 0.026497528 -0.07940443 -0.09201048
0001c0 38 15 b2 bd 00 67 80 3b 70 6c ec 3d 84 ac 6e 3d
       -0.086954534 0.0039185286 0.1154412 0.058269992
0001d0 54 68 ec bd 72 08 8a 3d fa 59 e8 3d 79 b3 af 3d
       -0.115433365 0.06739892 0.11345287 0.085791536
0001e0 d8 83 ec 3d c8 da 94 bd 82 85 78 bd 94 40 8e 3d
       0.11548585 -0.07268292 -0.060674198 0.06945911
0001f0 a2 a8 c9 bd 28 b7 1a bd f7 cc b2 3d 28 49 1d 3d
       -0.09846617 -0.037772328 0.087305 0.038399845
000200 2a 19 f6 bc 90 d3 3e 3d 08 64 6f bd f0 b9 81 bd
       -0.030041296 0.04658848 -0.058445007 -0.06334293
000210 f4 a9 0b 3d 44 1b 77 bd 84 24 b2 3d 70 43 64 3d
       0.034097627 -0.060328737 0.08698371 0.055728376
000220 a4 77 9b 3d 46 c9 b7 3d 55 7d 45 3c e8 08 3d bd
       0.07591179 0.08973937 0.012053807 -0.04615107
000230 14 0d d7 bd 94 4c 14 bd aa 52 d7 bd fa 99 9b 3d
       -0.10500541 -0.036205843 -0.10513814 0.07597728
000240 10 6d 1f 3c b8 72 67 bd 55 15 ef bb 08 bb b8 3d
       0.009730592 -0.05650589 -0.007296244 0.090200484
000250 a8 4c 60 bd b0 6b c5 3c 50 45 76 3c 38 b1 8a bc
       -0.054760605 0.024099201 0.015031174 -0.016930208
000260 75 21 d2 bc 2c cd 3f 3d 08 39 33 bd dc 3b d2 bd
       -0.02565072 0.046826527 -0.04375556 -0.102653235
000270 70 21 e7 3c 80 e7 94 bd 7c 38 83 bd 80 76 66 3b
       0.028214186 -0.072707176 -0.06407258 0.0035165846
000280 e1 19 81 3d 3c 91 14 bd 98 bc a0 bd f4 95 6c 3d
       0.06303764 -0.03627132 -0.078484714 0.057760194
000290 7e 27 9e bd 20 10 dd 3c bd 9f 1f 3d 14 c1 d0 bb
       -0.07722376 0.026985228 0.038970698 -0.006370673
0002a0 5c 99 03 bd fd ad a5 bc 46 d7 90 bd 00 62 a1 3d
       -0.032128677 -0.020224566 -0.0707231 0.0788002
0002b0 c0 f7 36 bc 3c 09 56 bd 58 45 8c bd e4 44 62 3d
       -0.011167467 -0.0522549 -0.06849164 0.05524148
0002c0 64 fb 9d bd 4c 73 53 3d 00 0e cc 39 20 68 ec bd
       -0.077139646 0.051623628 0.00038920343 -0.11543298
0002d0 3c 91 a3 3d 2c b4 49 3d 50 2a 58 3d 30 98 73 bd
       0.07986686 0.04924409 0.052774727 -0.05947131
0002e0 86 a0 de bd 68 59 71 3d fe dd c1 bd 64 d7 72 3d
       -0.10870461 0.058923155 -0.0946617 0.059287444
0002f0 40 c6 dd 3d cd 0f 9b bc 20 6f d6 bd c6 0a c0 3d
       0.10828829 -0.018928433 -0.10470414 0.09377055
000300 42 ea fb bd d2 2d 1c bd 8c e2 bd bd 38 34 59 3d
       -0.123005405 -0.038129635 -0.09271726 0.053028315
000310 79 20 ee 3d 00 b9 a3 bd ec f3 92 bd 6c 98 cf 3d
       0.116272874 -0.0799427 -0.07175431 0.10136494
000320 04 5c 7b 3d 80 30 b3 3d d1 74 ad bd 56 45 ef 3d
       0.06136705 0.08749485 -0.084695466 0.11683147
000330 c4 eb 39 bd 16 84 8d bd ac 25 2b bd 90 56 04 3c
       -0.04539086 -0.06909959 -0.041783974 0.008077279
000340 22 71 95 3d 32 24 eb bc c9 36 a6 bd e8 a8 a5 3c
       0.07296969 -0.028703783 -0.08115918 0.020222142
000350 ee 77 f6 bd 3c ea cb bd c8 45 dc 3c 7a dc e3 3d
       -0.120345935 -0.09956786 0.026888743 0.11126037
000360 ef a2 9a bd 9e 1b 91 3d 5f b7 98 bd f8 d2 2f bd
       -0.07550608 0.07085346 -0.0745685 -0.042925805
000370 50 e6 fd 3d a8 02 0b 3d b0 1c 58 bd d0 80 66 bd
       0.12397444 0.03393808 -0.052761734 -0.05627519
000380 7e e7 d6 3c 72 1e 9f 3d 81 2b c7 3d b0 63 16 3c
       0.026233431 0.07769479 0.097250946 0.009179041
000390 52 33 81 bd 68 40 7f 3d a6 07 dd bd 3a f1 43 ba
       -0.06308617 0.062317282 -0.107924744 -0.0007474605
0003a0 d6 e9 eb bd 04 35 bc bc 00 d9 41 ba 6f 58 d8 3d
       -0.1151921 -0.022974499 -0.0007394701 0.10563742
0003b0 48 82 ea 3c 7e cb ac bd 9c 0a 6b 3d 40 41 57 3b
       0.028626576 -0.084372506 0.057383165 0.0032845289
0003c0 22 d5 a2 bd de 89 d8 bd 80 9a d3 3c 36 19 93 bd
       -0.07950808 -0.10573171 0.025830507 -0.07182543
0003d0 50 fc 43 bd 54 2a 83 bd 26 a5 be bd 2f f6 9e bd
       -0.047848046 -0.06404558 -0.09308843 -0.077617995
0003e0 38 34 98 bc 00 5b 49 bb 47 ab a7 3d ee 18 d2 bd
       -0.018579587 -0.0030724406 0.081869654 -0.10258661
0003f0 ee 12 db 3d 64 14 f3 3d 51 db f0 bd 96 d8 a4 3d
       0.1069697 0.118691236 -0.11760581 0.08049123

lstm.weight_hh_l1 f4 [256, 64]
000000 eb 1b 9c bc a9 77 09 3d 3b 7f 7b 3c 43 1f 5a 3d
       -0.019056281 0.033561382 0.015350158 0.05325247
000010 f7 0c 6e 3c 68 b1 99 3d 72 1c 2a bb 8c f8 a0 3d
       0.014529458 0.07504541 -0.0025956896 0.078599066
000020 be e2 60 3d 25 ac dd bd 0f 60 9f 3d f9 42 86 bd
       0.05490374 -0.108238496 0.077819936 -0.06555743
000030 05 1d 9d 3d 34 31 03 3e fa 01 cf bd 04 14 00 3c
       0.07671551 0.12811738 -0.10107799 0.007817272
000040 59 e1 dd bc 42 dc f5 3d 80 47 a7 3c e8 d7 39 3c
       -0.027084993 0.120049015 0.020419836 0.01134298
000050 2f a1 00 3e 1e 89 c6 3b aa d4 a5 bb 09 74 ea bd
       0.12561487 0.006058826 -0.005060752 -0.11447913
000060 99 f0 68 3d df 08 c4 3d 78 1d c4 3d b3 b8 f0 3d
       0.056870077 0.095720045 0.09575933 0.117539786
000070 76 a7 b9 bc d5 39 30 bd 49 56 c9 3d fa 58 db 3d
       -0.02266286 -0.043023903 0.09830911 0.1071033
000080 90 bd a0 3d 6a d1 72 bd 59 3e e6 3d 41 f6 7a 3d
       0.07848656 -0.059281744 0.112423606 0.061270002
000090 f1 72 fe 3c 88 a0 b5 3d ce 23 32 bc 5a 2a d0 3c
       0.031060668 0.088685095 -0.010872794 0.02541082
0000a0 9c 1e 36 bd 18 26 eb bb c2 8d c4 bd 61 13 81 bd
       -0.044462785 -0.007176172 -0.09597351 -0.06302524
0000b0 2c 4f c5 bd ee 56 e6 3d 92 44 0a bd 9e fc a9 bb
       -0.096342415 0.11247049 -0.0337568 -0.005187585
0000c0 7d 65 a9 3d b9 4d 94 3d 03 d5 aa bd f3 a8 bb 3b
       0.082713105 0.07241387 -0.0834141 0.0057269274
0000d0 40 f7 97 bd e2 92 36 bd 87 4e 62 3d 92 bf 38 3b
       -0.07420206 -0.044573672 0.05525067 0.0028190357
0000e0 66 37 e3 3d bc d2 a2 3d 2d 36 cd bd e2 a6 ca bd
       0.11094551 0.07950351 -0.10020099 -0.098951116
0000f0 14 33 c7 bd 0d d1 1f bd f3 2c 8c 3d a0 de 1b 3d
       -0.09726539 -0.039017726 0.06844511 0.03805411
000100 7f 5f e0 3d a3 e7 fb 3d 5f de e6 3d d9 33 4d 3d
       0.109557144 0.123000406 0.11272883 0.050098274
000110 bf b9 66 bd 42 39 d8 3d 2b d7 ea 3d ca c4 e1 3d
       -0.056329485 0.10557796 0.11466821 0.11023863
000120 c9 fd db 3d 7a 54 fa 3d 0e 9f 5f 3d e1 a2 03 bd
       0.10741765 0.12223144 0.054595046 -0.032137755
000130 d1 34 5b 3c d9 d2 f4 bd ee 60 4e bd 3c eb 31 bd
       0.013379292 -0.119542785 -0.050385408 -0.043437228
000140 a4 2d b5 3d 64 87 6e 3c cb bd e2 3d 8e a6 bf bd
       0.08846596 0.014558647 0.110713564 -0.0935794
000150 aa d0 0c bd c6 eb d6 bd 06 e0 eb 3d ab c0 91 bd
       -0.034378685 -0.10494189 0.115173385 -0.071168266
000160 4e 15 5e bd 62 b3 de 3c f4 bb ab 3d 84 61 42 bd
       -0.054219536 0.027185146 0.083854586 -0.04745628
000170 d2 34 00 3e ab e4 53 bd 07 9d ea bd e3 60 6c bd
       0.1252015 -0.051731747 -0.11455732 -0.057709586
000180 77 e0 72 bc e9 7d ad 3c 00 32 50 bd 8c d2 b6 bc
       -0.014824024 0.021178203 -0.050828934 -0.022317193
000190 6f f7 fa 3d 5d 3a 19 bd 45 fb d5 3d e4 45 5d 3b
       0.122542255 -0.037409175 0.104483165 0.0033763582
0001a0 aa c1 8a 3d ef 6e c7 bd 64 fd 14 3d ec 7f 31 bc
       0.0677522 -0.09737956 0.036374465 -0.010833722
0001b0 98 c2 a3 bd 0c d6 b8 3d e4 e3 c2 3d e5 a8 12 bd
       -0.079961 0.09025201 0.09516123 -0.0358056
0001c0 5a b1 31 bb 48 3a e1 bd 11 43 fc 3c cd b7 e5 3d
       -0.0027113766 -0.109974444 0.030793699 0.11216698
0001d0 24 07 9d 3d fc ef a8 3c e4 6f 3f 3d 73 7b 74 3d
       0.076673776 0.020622246 0.046737567 0.059688043
0001e0 75 48 d7 3d f6 99 c2 bd 4a 81 64 bd fe 1b 05 3d
       0.10511867 -0.09502022 -0.055787362 0.0324974
0001f0 30 bf 10 bd eb ff c2 bd 97 ab df 3d 04 19 68 bd
       -0.03533858 -0.09521469 0.109214 -0.05666448
000200 e4 91 b5 3c ab c3 dd bd 5a 6d 44 bd e5 1f ef 3c
       0.022164293 -0.10828336 -0.04795585 0.029190013
000210 ea 5f d2 3d 45 0d 3b 3c 41 c4 0e bd a3 ee 88 bd
       0.102722004 0.011416738 -0.03485513 -0.06686141
000220 38 77 9e bd 40 d3 9c bc d4 74 99 3d 58 e1 84 3d
       -0.07737583 -0.0191437 0.07492986 0.064882934
000230 d8 0e e6 bb 2d b1 a9 3d 25 c6 92 3d a5 a8 1f bd
       -0.0070208125 0.08285747 0.07166699 -0.03897919
000240 fc 97 e7 3d 79 a1 ed 3a 6e b4 b1 3b 4d f2 87 3d
       0.113082856 0.0018129788 0.00542312 0.06638012
000250 0c 5b ae bc 54 83 ea bc 8d f8 57 3d 14 a6 bc bd
       -0.021283649 -0.028627075 0.05272727 -0.092113644
000260 36 e7 98 bd 19 ce 60 3d b3 19 dc 3d 4d af 0f bd
       -0.07465975 0.05488405 0.10747089 -0.03507929
000270 d3 a5 ad bd 32 d0 a5 bc 53 10 11 bd 99 3d e3 bc
       -0.08478894 -0.020240877 -0.03541596 -0.027739333
000280 da 52 98 3d 6d 25 60 bd bb 12 8b 3d 32 df cc bd
       0.07437678 -0.054723192 0.06790682 -0.100035086
000290 7b c9 d1 3c fc c7 d5 bd ce 9a 1b 3b e4 d9 bd bc
       0.025608769 -0.104385346 0.0023743394 -0.023175187
0002a0 9c f7 c7 bc 5b a0 a8 bd 0b 83 33 3d ab ae c0 3d
       -0.024410062 -0.082337104 0.043826144 0.09408315
0002b0 29 42 df bd e3 30 f3 bd b1 ec 79 bd be cc a0 bd
       -0.10901291 -0.11874559 -0.061016742 -0.078515515
0002c0 6b 79 c8 bd 91 3a e0 3d 00 60 d2 bc 3d 77 e4 bd
       -0.09788784 0.10948671 -0.025680542 -0.111555554
0002d0 ab 1e ad bd 81 90 9e 3d 62 56 89 3c 9c db 5f 3c
       -0.08453115 0.07742406 0.016764823 0.013663199
0002e0 d2 02 83 3c f1 f4 f2 bd dc 2b 2b 3d e8 39 23 bb
       0.015992556 -0.11863125 0.041789874 -0.002490634
0002f0 27 21 19 3d ea 21 de 3d a8 62 a5 3d 93 88 c7 bc
       0.037385132 0.10846312 0.08075458 -0.024357116
000300 f0 2e e8 bd 23 cf 5f bc 40 c3 94 bd 6e 3c 96 3c
       -0.113370776 -0.013660225 -0.072638035 0.018339362
000310 8a 33 a8 bb 5c f1 a0 bc e7 33 07 bd 2e 6e 04 3e
       -0.005133097 -0.01964634 -0.033008482 0.12932655
000320 1e 16 2f 3d 6d 7e 4b 3d 4f a9 40 3d e6 b5 dd bd
       0.042745702 0.049681116 0.047036465 -0.1082571
000330 07 6b 9e bd 1e e0 93 3c 1e 31 28 3d ae cd 9d 3d
       -0.077352576 0.018051203 0.041062467 0.07705246
000340 90 c6 08 3d 1f 66 f1 bc 15 64 d1 3d 52 d0 a9 bd
       0.03339249 -0.02946764 0.10224167 -0.08291687
000350 c7 59 30 bd 80 c2 30 bd ac bc aa bd 86 01 d2 bc
       -0.04305437 -0.04315424 -0.083367676 -0.025635492
000360 20 f0 c1 bd 96 ee a9 bc 8a f2 0b bd db 4d b1 bd
       -0.09469628 -0.02074365 -0.03416685 -0.08657428
000370 b0 83 8e 3d cb d2 3f bd 72 f2 fc 3c 3d 67 ab 3d
       0.06958711 -0.046831887 0.030877326 0.083693005
000380 b8 a6 51 3a c5 77 9b 3d 32 1d 01 bd 3b 2a 57 3c
       0.00079975603 0.075912036 -0.031521983 0.013132627
000390 2d 44 81 3d 8a 80 be 3d fc 4e b1 bd 08 a1 eb 3c
       0.063118316 0.09301861 -0.08657643 0.02876331
0003a0 0d 1d f3 3d e2 5c 5e 3d f1 2d 90 bd bf 21 4d 3d
       0.11870775 0.0542878 -0.07040013 0.05008101
0003b0 a0 96 b1 3d 28 f1 97 3c be ac e6 b9 44 78 40 bd
       0.086713076 0.01854761 -0.00043997722 -0.046989694
0003c0 69 06 94 bc 2b 1c e6 bd f7 7c c9 3d de 1f 17 3d
       -0.018069463 -0.11235841 0.09838288 0.036895625
0003d0 76 44 f5 3c c2 ae 48 bd c4 be 22 3d 18 fa ca 3b
       0.029939871 -0.048994787 0.03973271 0.0061943643
0003e0 b9 f0 e4 bd 67 e4 ee 3d 71 df d5 bd 3a b2 96 3d
       -0.11178727 0.11664658 -0.10443009 0.07358213
0003f0 83 24 f0 3d 16 78 99 bd 4e ee 94 3c 96 53 cf 3c
       0.11725714 -0.07493608 0.018180039 0.025308412

lstm.bias_ih_l1 f4 [256]
000000 2b 4b db 3d f9 23 b0 3d 2e 20 e6 3d d4 47 b3 3d
       0.107076965 0.08600611 0.112366065 0.087539345
000010 03 7e c8 bd bb 80 c4 3d fb d5 c7 3d c7 23 8e 3d
       -0.0978966 0.09594866 0.097576104 0.06940418
000020 d1 24 2c bc 0e 35 9a bd 28 28 f3 bd 5b 08 d2 3d
       -0.010506825 -0.07529651 -0.118728936 0.102555
000030 14 5c 0f 3d 6d 29 db bd 3c b2 9e 3d 67 9b ee 3d
       0.034999922 -0.10701261 0.07748839 0.116507344
000040 e1 6d 8a 3c 40 db 8d 3d ee f4 03 be 2b af 9e bd
       0.016898097 0.06926584 -0.12886402 -0.077482544
000050 91 0f f8 bd 95 33 d9 bd 81 f7 45 3c 3b c3 3e bc
       -0.12112344 -0.106055416 0.012082935 -0.011643226
000060 ba c7 0e bd c5 19 77 3b 19 ea 74 3d 50 d6 c0 3d
       -0.034858443 0.0037704569 0.059793565 0.09415877
000070 b7 18 8c bd 32 9f 8a 3d 44 fe 45 bd 20 3f 72 3d
       -0.068406515 0.06768645 -0.04833819 0.059142232
000080 ff a4 8a bd 56 fb b4 bd 34 43 a7 3c b7 7a 9a bc
       -0.06769752 -0.08837001 0.020417787 -0.018857343
000090 6d 8f 1f 3c 3c 65 b1 bc 3c 9e d8 bc 11 79 b3 bd
       0.009738785 -0.021654718 -0.02644264 -0.08763326
0000a0 c5 71 f6 3d 3c 49 aa bd dc ed e8 3d 3f 37 80 bd
       0.120334186 -0.083147496 0.11373493 -0.06260537
0000b0 bc 15 a4 3d 85 38 d5 bd dd 8e e9 3d fd a2 e9 3d
       0.08011958 -0.10411171 0.11404202 0.11408041
0000c0 f2 2b f4 3d c1 e0 e0 3d 3d bc 00 3e 53 43 a7 bd
       0.119224444 0.109803684 0.12571807 -0.08167138
0000d0 36 3a fa bc af a8 68 3d dc cb 71 bb ed ab cf bd
       -0.030545335 0.056801494 -0.0036895191 -0.10140214
0000e0 5f 6e d4 bd fc c4 00 3e b6 a1 f4 3d 6b f2 a2 3c
       -0.10372614 0.12575144 0.119449064 0.019890985
0000f0 f6 cc 81 3d 42 a8 f7 3d cb 45 b1 bd bd 1d d1 bd
       0.06337921 0.120926395 -0.0865589 -0.1021075
000100 37 58 bc 3d 75 e4 f6 3d 5b 70 b0 bd 03 e8 ef bd
       0.09196513 0.120552935 -0.0861518 -0.117141746
000110 91 df e4 3c 31 9c 18 bd 11 07 fa bd 35 59 ad bd
       0.027938636 -0.03725833 -0.12208379 -0.084642805
000120 9b e3 ef bd 75 7c 98 3d e6 83 82 bd c6 25 a5 3d
       -0.11713334 0.07445613 -0.06372814 0.08063845
000130 0f 30 37 bc 86 57 82 bd eb 61 00 bb 98 b1 01 3e
       -0.011180892 -0.0636435 -0.0019589614 0.12665403
000140 b8 91 dd 3d fd d1 88 bd de e5 d6 bb e9 96 a2 3d
       0.10818809 -0.06680677 -0.006558164 0.0793894
000150 9a 03 e8 3d 28 19 bb 3d 67 1c 4b bd c3 d9 9a 3d
       0.11328812 0.091356575 -0.049587633 0.07561066
000160 6c 49 99 3c 68 fe a2 3d a0 13 ac bc 4a 51 a0 3c
       0.018711768 0.079586804 -0.021005452 0.019570012
000170 c8 f8 fa bd b7 d1 c3 bd af b2 b3 3d e7 a1 b3 bd
       -0.122544825 -0.09561484 0.087743156 -0.08771115
000180 5b b6 bc bd c7 78 b1 bd 71 70 02 3d bd 35 91 3c
       -0.09214469 -0.086656146 0.031845514 0.01772582
000190 03 d3 82 3d 1f b4 c4 3d 28 df 33 bd 1f 47 10 3d
       0.063879035 0.09604668 -0.04391399 0.035224076
0001a0 5b eb fb 3d ba 7c cc ba e2 94 96 bc e5 ec a9 3d
       0.1230075 -0.0015601136 -0.01838154 0.08297137
0001b0 ba 48 87 bc c3 4d 72 bd 2d 91 f9 bd c6 0f c5 3b
       -0.01651417 -0.05915619 -0.12185893 0.006013843
0001c0 30 d0 00 3d fc 9f 9e bd e3 0d 62 bc 03 c2 1e bd
       0.031448543 -0.07745358 -0.013797256 -0.038759243
0001d0 bd 03 72 3d fb b7 da 3a 1b 18 d0 bd 50 b4 eb 3d
       0.059085596 0.001668691 -0.10160848 0.11509001
0001e0 0c 9e ab 3d 9e 9a b0 bd b9 3c b4 3d 2f eb f8 bc
       0.083797544 -0.08623241 0.088006444 -0.030385582
0001f0 9f 41 87 3c 8f d5 19 3d f0 fe b5 bd f2 c5 da bd
       0.016510783 0.03755718 -0.08886516 -0.10682286
000200 11 5a f7 3b ec 0c eb 3c 02 d1 bc 3d 1e fe 9f bc
       0.0075485785 0.028692685 0.092195526 -0.019530352
000210 7e 2f de 3d c3 48 f5 3d ac eb f6 3d 09 37 27 3d
       0.10848902 0.11976769 0.120566696 0.04082397
000220 4c c6 1f bd fe b3 6e bc a5 55 5c 3c 1f 95 e3 3d
       -0.03900747 -0.014569281 0.013448154 0.11112427
000230 f0 1c 3c 3b 9d f6 c1 bd ca 9d 35 bc e3 8e a7 bd
       0.0028703772 -0.09470866 -0.011084983 -0.0818155
000240 a9 18 a0 bd df fb 1b bd 60 df c2 3d 67 e2 e7 bd
       -0.078172036 -0.038082 0.09515262 -0.1132248
000250 3a 70 b2 3c b0 b5 b2 3d 6b 60 94 bd c7 f0 be 3c
       0.02178203 0.087260604 -0.07244953 0.023308171
000260 e2 50 ae 3d fa d3 8f 3b 71 4e 85 3c 8b f2 20 bd
       0.08511521 0.0043892832 0.016272755 -0.039293807
000270 6b 24 48 bd 96 57 15 bb d3 a1 8f bc a0 d3 10 3d
       -0.048862856 -0.00227878 -0.017533218 0.03535807
000280 54 c2 d9 3d ec a9 cb bd 12 73 eb 3d c9 93 a9 3d
       0.10632768 -0.099445194 0.11496557 0.08280141
000290 c6 e2 eb bd 06 00 e4 bd 84 4a 9f 3d ea 39 cf bb
       -0.11517863 -0.11132817 0.077778846 -0.0063240426
0002a0 44 d2 bd 3d fd 02 ce 3d 8c 09 98 bc ab 4e d5 bd
       0.092686206 0.10059164 -0.01855924 -0.10415395
0002b0 4b 5e 7e 3c 98 ec 14 bd 2d 6d c4 bc 9e 07 f4 3b
       0.015525411 -0.036358446 -0.02397784 0.007447197
0002c0 ef fd f5 3d 8f 23 a9 bd 67 b7 87 3b b8 b9 91 3d
       0.120113246 -0.082587354 0.0041417363 0.07115501
0002d0 15 63 4d bd 48 69 ed bd 79 09 59 bd af 80 77 bd
       -0.05014332 -0.115923464 -0.05298755 -0.060425457
0002e0 31 d7 f6 3d 91 39 c2 bc 3d 1f 73 3d 92 6e c3 3d
       0.12052763 -0.02370909 0.059355963 0.09542574
0002f0 45 6c 9e bd a1 5f a7 bc 45 4d 43 bd e6 3e 20 3d
       -0.077354945 -0.020431342 -0.04768111 0.039122485
000300 53 63 a4 3d 73 96 b9 bd db b0 b1 bd 0f 40 c8 3a
       0.08026757 -0.09061899 -0.08676311 0.001527788
000310 38 f4 28 bd c1 d9 f6 3d 2f e5 bf 3d d8 c7 63 bd
       -0.04124853 0.12053252 0.09369885 -0.055610508
000320 d5 81 a7 3d 38 e1 01 b9 71 28 8e 3d b2 c5 b5 bc
       0.0817906 -0.00012386299 0.06941307 -0.022188995
000330 c5 a9 b1 3d c3 85 73 bc b3 40 e1 3d 97 0c 04 bd
       0.08674959 -0.014863434 0.109986685 -0.03223857
000340 ba cc 97 3d ed a7 db 3d cb 9f a2 bd bf 85 b0 bd
       0.07412095 0.10725389 -0.07940634 -0.0861926
000350 97 ea 8b 3b a5 37 69 bd bb 31 c2 3c 23 ea fd 3c
       0.0042699086 -0.056937832 0.023705354 0.030995434
000360 a8 ec 84 3d 0f be 2e 3c 0d 79 a1 bd 54 d4 6b bd
       0.06490451 0.010665431 -0.07884417 -0.05757554
000370 d6 74 a6 3d 0f f4 d6 3d 70 7c 5c 3d 6c 10 22 bd
       0.081277534 0.10495769 0.05382961 -0.039566442
000380 fc ea 9b 3d 6b c8 90 bd e3 da cc 3d 54 a7 dd bc
       0.07613179 -0.07069477 0.10002687 -0.027057327
000390 0f aa 8f bc c9 a1 fa 3d 64 93 dd bd 00 09 39 3d
       -0.017537145 0.12237889 -0.10819128 0.0451746
0003a0 ac 51 03 bd 70 ab a0 3c 4c 09 38 3c 22 94 2e bd
       -0.03206031 0.019612998 0.011232685 -0.04262174
0003b0 c0 9b 33 bc 7f 44 cf bb fa 72 ba ba a1 17 f6 3d
       -0.010962427 -0.006325304 -0.001422494 0.120162256
0003c0 79 3d b2 bb 62 08 6b bd cd 00 55 3d aa 4f a0 bd
       -0.005439457 -0.05738104 0.052002717 -0.07827695
0003d0 d4 ad 73 bd bb d8 c7 ba fa ca 64 3d 78 2f 4d 3c
       -0.059491947 -0.0015247086 0.055857636 0.012523524
0003e0 25 08 e1 3c 68 7e e3 bc ca ce e2 3d cd 43 ce bd
       0.027469704 -0.027770236 0.11074598 -0.10071526
0003f0 45 09 c7 bd 21 4d c3 bd be 22 8f 3d ad 70 24 3d
       -0.09718565 -0.095361955 0.069890484 0.04014652
